…
      "backgroundColor": "transparent",
      "fillStyle": "solid",
      "strokeWidth": 2,
      "strokeStyle": "solid",
      "roughness": 1,
      "opacity": 100,
      "groupIds": [],
      "frameId": null,
      "index": "aO",
      "roundness": null,
      "seed": 488735425,
      "version": 299,
      "versionNonce": 689217311,
      "isDeleted": false,
      "boundElements": [
        {
          "id": "bqKUR1m5KMF4JVQFYLdZr",
          "type": "arrow"
        }
      ],
      "updated": 1764929578633,
      "link": null,
      "locked": false,
      "text": "Transformer(\n  (embedding): InputEmbedding(\n    (embedding): Embedding(32000, 512)\n  )\n  (positional): PositionalEncoding(\n    (dropout): Dropout(p=0.1, inplace=False)\n  )\n  (encoder): Encoder(\n    (layers): ModuleList(\n      (0-11): 12 x EncoderLayer(\n        (self_attention): MultiHeadAttention(\n          (W_q): Linear(in_features=512, out_features=512, bias=True)\n          (W_k): Linear(in_features=512, out_features=512, bias=True)\n          (W_v): Linear(in_features=512, out_features=512, bias=True)\n          (W_o): Linear(in_features=512, out_features=512, bias=True)\n          (dropout): Dropout(p=0.1, inplace=False)\n        )\n        (feed_forward): FeedForward(\n          (linear1): Linear(in_features=512, out_features=512, bias=True)\n          (dropout): Dropout(p=0.1, inplace=False)\n          (linear2): Linear(in_features=512, out_features=512, bias=True)\n        )\n        (add_norm1): AddAndNorm(\n          (norm): LayerNorm((512,), eps=1e-05, elementwise_affine=True)\n          (dropout): Dropout(p=0.1, inplace=False)\n        )\n        (add_norm2): AddAndNorm(\n          (norm): LayerNorm((512,), eps=1e-05, elementwise_affine=True)\n          (dropout): Dropout(p=0.1, inplace=False)\n        )\n      )\n    )\n  )\n  (decoder): Decoder(\n    (layers): ModuleList(\n      (0-11): 12 x DecoderLayer(\n        (masked_self_attention): MaskedMultiHeadAttention(\n          (attention): MultiHeadAttention(\n            (W_q): Linear(in_features=512, out_features=512, bias=True)\n            (W_k): Linear(in_features=512, out_features=512, bias=True)\n            (W_v): Linear(in_features=512, out_features=512, bias=True)\n            (W_o): Linear(in_features=512, out_features=512, bias=True)\n            (dropout): Dropout(p=0.1, inplace=False)\n          )\n        )\n        (cross_attention): MultiHeadAttention(\n          (W_q): Linear(in_features=512, out_features=512, bias=True)\n          (W_k): Linear(in_features=512, out_features=512, bias=True)\n          (W_v): Linear(in_features=512, out_features=512, bias=True)\n          (W_o): Linear(in_features=512, out_features=512, bias=True)\n          (dropout): Dropout(p=0.1, inplace=False)\n        )\n        (feed_forward): FeedForward(\n          (linear1): Linear(in_features=512, out_features=512, bias=True)\n          (dropout): Dropout(p=0.1, inplace=False)\n          (linear2): Linear(in_features=512, out_features=512, bias=True)\n        )\n        (add_norm1): AddAndNorm(\n          (norm): LayerNorm((512,), eps=1e-05, elementwise_affine=True)\n          (dropout): Dropout(p=0.1, inplace=False)\n        )\n        (add_norm2): AddAndNorm(\n          (norm): LayerNorm((512,), eps=1e-05, elementwise_affine=True)\n          (dropout): Dropout(p=0.1, inplace=False)\n        )\n        (add_norm3): AddAndNorm(\n          (norm): LayerNorm((512,), eps=1e-05, elementwise_affine=True)\n          (dropout): Dropout(p=0.1, inplace=False)\n        )\n      )\n    )\n  )\n  (output_linear): OutputLinear(\n    (linear): Linear(in_features=512, out_features=32000, bias=True)\n  )\n)",
      "fontSize": 16.873255214537867,
      "fontFamily": 5,
      "textAlign": "left",
      "verticalAlign": "top",
      "containerId": null,
      "originalText": "Transformer(\n  (embedding): InputEmbedding(\n    (embedding): Embedding(32000, 512)\n  )\n  (positional): PositionalEncoding(\n    (dropout): Dropout(p=0.1, inplace=False)\n  )\n  (encoder): Encoder(\n    (layers): ModuleList(\n      (0-11): 12 x EncoderLayer(\n        (self_attention): MultiHeadAttention(\n          (W_q): Linear(in_features=512, out_features=512, bias=True)\n          (W_k): Linear(in_features=512, out_features=512, bias=True)\n          (W_v): Linear(in_features=512, out_features=512, bias=True)\n          (W_o): Linear(in_features=512, out_features=512, bias=True)\n          (dropout): Dropout(p=0.1, inplace=False)\n        )\n        (feed_forward): FeedForward(\n          (linear1): Linear(in_features=512, out_features=512, bias=True)\n          (dropout): Dropout(p=0.1, inplace=False)\n          (linear2): Linear(in_features=512, out_features=512, bias=True)\n        )\n        (add_norm1): AddAndNorm(\n          (norm): LayerNorm((512,), eps=1e-05, elementwise_affine=True)\n          (dropout): Dropout(p=0.1, inplace=False)\n        )\n        (add_norm2): AddAndNorm(\n          (norm): LayerNorm((512,), eps=1e-05, elementwise_affine=True)\n          (dropout): Dropout(p=0.1, inplace=False)\n        )\n      )\n    )\n  )\n  (decoder): Decoder(\n    (layers): ModuleList(\n      (0-11): 12 x DecoderLayer(\n        (masked_self_attention): MaskedMultiHeadAttention(\n          (attention): MultiHeadAttention(\n            (W_q): Linear(in_features=512, out_features=512, bias=True)\n            (W_k): Linear(in_features=512, out_features=512, bias=True)\n            (W_v): Linear(in_features=512, out_features=512, bias=True)\n            (W_o): Linear(in_features=512, out_features=512, bias=True)\n            (dropout): Dropout(p=0.1, inplace=False)\n          )\n        )\n        (cross_attention): MultiHeadAttention(\n          (W_q): Linear(in_features=512, out_features=512, bias=True)\n          (W_k): Linear(in_features=512, out_features=512, bias=True)\n          (W_v): Linear(in_features=512, out_features=512, bias=True)\n          (W_o): Linear(in_features=512, out_features=512, bias=True)\n          (dropout): Dropout(p=0.1, inplace=False)\n        )\n        (feed_forward): FeedForward(\n          (linear1): Linear(in_features=512, out_features=512, bias=True)\n          (dropout): Dropout(p=0.1, inplace=False)\n          (linear2): Linear(in_features=512, out_features=512, bias=True)\n        )\n        (add_norm1): AddAndNorm(\n          (norm): LayerNorm((512,), eps=1e-05, elementwise_affine=True)\n          (dropout): Dropout(p=0.1, inplace=False)\n        )\n        (add_norm2): AddAndNorm(\n          (norm): LayerNorm((512,), eps=1e-05, elementwise_affine=True)\n          (dropout): Dropout(p=0.1, inplace=False)\n        )\n        (add_norm3): AddAndNorm(\n          (norm): LayerNorm((512,), eps=1e-05, elementwise_affine=True)\n          (dropout): Dropout(p=0.1, inplace=False)\n        )\n      )\n    )\n  )\n  (output_linear): OutputLinear(\n    (linear): Linear(in_features=512, out_features=32000, bias=True)\n  )\n)",
      "autoResize": true,
      "lineHeight": 1.25
    },
    {
      "id": "tcYo476XgSjZqKxSf9X5a",
      "type": "text",
      "x": 158.4875158083172,
      "y": 2091.088686761101,
      "width": 196.47987365722656,
      "height": 25,
      "angle": 0,
      "strokeColor": "#1e1e1e",
      "backgroundColor": "transparent",
      "fillStyle": "solid",
…
